best_model.pth (torch, 843042 bytes, 40 tensors)

thgnn.skip_weights f4 [2]
000000 f3 9f 7d 3f 06 30 81 3f
       0.9907219 1.009278

thgnn.feature_transform.0.weight f4 [128, 13]
000000 de ca 62 3e bc 74 75 3e 16 6a 82 bd 31 5e 83 3e
       0.221477 0.23970312 -0.063678905 0.256578
000010 f7 f3 70 bd a0 2c 6c 3d fa 6c 08 be ea a2 28 3e
       -0.058826413 0.057659745 -0.13322821 0.16468397
000020 e4 b0 7b 3e ff c7 4e be 70 dc 7d 3e 21 d3 5c 3d
       0.24579197 -0.2019348 0.24791121 0.053912286
000030 ba ab 53 3e 95 28 32 3d 9c 37 0f 3e 05 f1 45 bd
       0.20670977 0.043495733 0.13986057 -0.048325557
000040 65 25 52 3e 94 68 05 3d 13 07 0d be c8 68 7e 3d
       0.20522077 0.032570437 -0.1377223 0.062111646
000050 89 a4 0b be dd a9 2a bd c7 54 e1 bd 21 a6 43 3e
       -0.13636984 -0.0416659 -0.11002498 0.19106342
000060 80 ce 56 be 6f b8 0b be 03 c2 a1 bd a9 eb 2b be
       -0.20977211 -0.13644575 -0.07898333 -0.16789116
000070 2a 8c 0c 3d 67 02 88 be 6f 7d 84 3e 43 0b 69 be
       0.03431336 -0.26564333 0.25876948 -0.22758202
000080 d0 bf 63 3e ad 02 5f 3d 2e f9 a7 bd e7 39 2e 3e
       0.2224114 0.05444591 -0.08201824 0.17014275
000090 8c fc 43 3d 00 e3 6d 3e dd 24 1e 3d 94 4d c1 bd
       0.04784827 0.23231125 0.038609374 -0.09438625
0000a0 c5 8f 8a 3d 3a f8 a3 bd b8 30 e5 3d 2c 95 78 3e
       0.06765703 -0.0800633 0.11190933 0.24275655
0000b0 7d 7c 1f 3e 44 17 01 be 10 04 1f 3e 34 c9 37 3d
       0.15574832 -0.12606531 0.15528893 0.044869617
0000c0 d0 76 0f 3e 72 8f 30 be 35 32 8f be ee 51 e5 bd
       0.14010167 -0.1724222 -0.27967992 -0.111972675
0000d0 d4 d3 54 be 61 9d 6e 3e de 27 97 3d 88 d5 de 3d
       -0.20783931 0.23302223 0.07380651 0.108805716
0000e0 1a 30 a6 3d 6d 11 37 bc 27 0b 58 3e 44 03 50 be
       0.081146434 -0.011173588 0.21098004 -0.20313746
0000f0 f7 98 3a 3c 66 65 37 be 83 33 af 3d 00 ec cd bd
       0.011389009 -0.17909774 0.08554747 -0.10054779
000100 94 9a a1 3d f4 50 76 bd d8 1b 69 3e 24 cb 1f be
       0.078908116 -0.060135797 0.22764528 -0.15604836
000110 fe de 1d be 95 55 2b be 22 7c 81 3e 85 4f d4 3d
       -0.15417096 -0.16731866 0.25290018 0.1036673
000120 c8 65 8e 3e bd df 5e be a4 46 8b be 7e a3 5c be
       0.27812028 -0.21765037 -0.27202332 -0.21546742
000130 bd 9a 47 be 75 16 fd 3d 8c b2 c5 3d 29 34 6a 3e
       -0.19492622 0.12357799 0.09653196 0.2287146
000140 da ae 19 be b4 60 48 be 84 12 10 3e ab 59 f3 bd
       -0.15008107 -0.1956814 0.14069563 -0.11882337
000150 67 9a 25 3e 06 53 94 bd 2d 73 1b 3e 99 4f 5e be
       0.16172181 -0.07242398 0.15180655 -0.21710052
000160 4e 40 15 be 3c 36 9f 3d 79 18 55 3d 7c da 92 bd
       -0.14575312 0.07774016 0.052025292 -0.07170579
000170 70 49 28 3e ef 73 39 3e 36 f4 4d be 3e 9f 17 be
       0.16434264 0.18110631 -0.2011269 -0.1480684
000180 e7 06 82 3e 82 aa bf bd b2 5e c9 bd ce 66 89 be
       0.2539589 -0.09358694 -0.09832515 -0.26836246
000190 2a 1d 29 be 59 ed 81 3d 8e 3c 30 bd 06 28 4e be
       -0.16515031 0.063440986 -0.0430265 -0.20132455
0001a0 ae dd 63 3a 7c c7 47 be 2c c7 6c be 39 38 18 be
       0.00086923956 -0.19509691 -0.23122853 -0.14865197
0001b0 18 80 7a be 38 ac 33 be a7 08 90 3e 6a 41 67 3d
       -0.24462926 -0.17546165 0.281316 0.056458868
0001c0 0f 62 b7 3d e3 6d 87 be e1 08 41 be 9f b0 c5 bd
       0.0895425 -0.26451024 -0.18851043 -0.096528284
0001d0 8a 54 42 3d 26 44 7e be 1b 6b fd bd ec a9 30 be
       0.047443904 -0.24830684 -0.12373944 -0.1725232
0001e0 00 7c 49 3a 06 5c d3 bd 90 71 9d bc 84 73 40 be
       0.0007686019 -0.103202865 -0.01921919 -0.18794066
0001f0 d1 f0 42 be 9e b0 25 be 9e 5f cf bd 27 68 66 be
       -0.19037177 -0.16180655 -0.101256594 -0.22500668
000200 4e 79 67 3e d8 75 61 bd be a2 71 3e 21 74 ab 3d
       0.22604868 -0.055044025 0.23597237 0.08371759
000210 f1 65 6a be ff 4e 40 3e 2c 49 9c bd fb dd d9 bd
       -0.2289045 0.18780135 -0.07631144 -0.106380425
000220 b5 fa 6f be 81 4a 8f be 80 08 ae 3d 82 20 6c bd
       -0.23435481 -0.2798653 0.08497715 -0.05764819
000230 26 9d d5 3d 22 26 6f be ed 9e 4e 3e 7f 46 56 be
       0.10430364 -0.2335439 0.20177813 -0.2092533
000240 63 fd 4e bd cb 2c 48 3d f3 92 09 3e 8f 3c 5c 3e
       -0.050534617 0.048870843 0.13434963 0.21507476
000250 4a bf 79 3e 69 3d 6a be a9 b8 79 3d c0 76 03 be
       0.24389377 -0.22874989 0.06096712 -0.12838268
000260 d1 a2 d6 bc 22 11 5e be c9 68 79 3e d7 7d 59 be
       -0.026200684 -0.21686223 0.24356379 -0.2123941
000270 9a 9d 11 3e 69 52 ba 3d 16 a5 b6 3d c8 20 1a be
       0.14220276 0.0909775 0.089182064 -0.15051568
000280 2a 24 81 3e c0 fb 7a 3d 6d d0 0f 3d f5 dc 7a be
       0.25222903 0.061275244 0.03511088 -0.24498351
000290 83 8b ec 3d 90 d4 4d bd 32 15 08 be 54 04 73 3e
       0.11550047 -0.050251544 -0.13289335 0.2373212
0002a0 8d f3 7a 3d 05 f4 15 be ad b4 08 be 0a b1 ac bb
       0.061267424 -0.14643867 -0.13350172 -0.005270128
0002b0 33 94 25 3e b2 52 87 bd 2b 2b 1b be c1 82 b4 bd
       0.16169815 -0.0660757 -0.15153186 -0.08814002
0002c0 67 2c 4d be c7 68 d9 3d 26 73 67 3e a9 af 80 be
       -0.2003647 0.10615688 0.2260252 -0.25134018
0002d0 9c 45 93 3d 51 b7 19 3e 2a 65 5f 3d 39 56 c3 bd
       0.07191011 0.15011336 0.054539837 -0.0953793
0002e0 e8 9e 1e 3e d1 7e 1f 3e eb dc e8 3d d7 d7 1e bd
       0.15490305 0.1557572 0.11370262 -0.03878006
0002f0 0e eb 81 bd 8c 84 22 3d 83 53 1f bd fc 6f b1 bd
       -0.06343661 0.039677188 -0.038898002 -0.086639374
000300 74 81 3c 3e d8 7f 7e 3e 28 f5 8e bc f8 c6 84 bd
       0.18408757 0.24853456 -0.017450884 -0.06483263
000310 71 c9 df 3a 6e 5f 84 bc e2 80 84 3d e4 81 97 3d
       0.0017073584 -0.016158786 0.06469895 0.073978215
000320 d7 34 82 be ea ab d5 bd c4 24 6d 3e 0d 5a dd 3d
       -0.2543094 -0.10433181 0.23158556 0.108081914
000330 ad 03 12 bc ef 7b 27 be 6c 2b 2e be 13 37 80 be
       -0.008912009 -0.1635587 -0.17008752 -0.25042018
000340 bc b5 bb bd 06 5b bf 3d 93 4f 2e 3e bf 40 f9 3d
       -0.091655225 0.09343533 0.17022543 0.121705525
000350 ca be 80 be 14 7a 31 be 37 47 4d bd 12 1e 86 3e
       -0.2514556 -0.17331725 -0.050116744 0.26194817
000360 e3 90 09 3d 84 e8 9d bd 79 b8 de 3d bc ae e5 bd
       0.03358544 -0.077103645 0.10875029 -0.112149686
000370 ca 52 3e be ef c2 53 3e a1 61 f9 bd 4b e9 49 bd
       -0.18586269 0.2067983 -0.12176824 -0.04929475
000380 b1 e3 8a be 4a d4 42 3e 42 08 5a 3e f1 83 d8 3d
       -0.2712684 0.19026294 0.21292213 0.10572041
000390 43 47 41 be 6b 6f 89 be a5 c7 5f be 8f 43 5a 3e
       -0.1887484 -0.26842818 -0.21853502 0.21314834
0003a0 fa 9d 0e 3e a8 be 73 3e be 43 10 3e c0 a1 86 3d
       0.13927451 0.23803198 0.14088342 0.0657382
0003b0 a0 42 9e 3b 18 fd 57 be 31 54 73 be 92 d2 84 be
       0.0048297197 -0.21092641 -0.23762585 -0.25941902
0003c0 dc 85 e8 3d 27 70 0b be 8f 89 46 bd 27 c0 1d be
       0.11353657 -0.13617001 -0.04847103 -0.15405332
0003d0 58 6c 5f bd 04 a4 4f be 06 93 39 be b9 a4 b1 3d
       -0.054546684 -0.20277411 -0.18122491 0.086739965
0003e0 4c 8a b3 bd d0 ea 26 3e 3a 39 b6 bd 7e 56 50 be
       -0.087666124 0.16300511 -0.08897634 -0.20345494
0003f0 70 70 48 bd e2 ab 09 be 60 c7 ad bd 1f ea 85 be
       -0.048935354 -0.13444474 -0.084852934 -0.26155183

thgnn.feature_transform.0.bias f4 [128]
000000 73 ed 78 be 5a f6 85 3c f4 8f 3b be 55 58 4f 3e
       -0.2430933 0.016352821 -0.18316633 0.2024854
000010 22 c0 21 3d 3d 2e 81 bd 47 ea 17 be 71 61 b5 3d
       0.039489873 -0.063076474 -0.14835463 0.08856476
000020 47 fb 25 be 18 0c 00 3e 38 07 21 3e 8f 0b 25 3e
       -0.16209136 0.12504613 0.1572541 0.1611769
000030 fc 86 92 3d e5 60 70 be 61 ae 56 3e 12 63 af bd
       0.071546525 -0.23474462 0.20964958 -0.08563818
000040 88 7a b5 bd ab 12 c2 bc 05 5e 57 3e c5 0c 52 3e
       -0.088612616 -0.023690542 0.2103196 0.20512684
000050 a4 34 23 3d 05 bb 0e 3e 91 9d 87 be f4 88 12 3c
       0.039845124 0.1393853 -0.264874 0.008943785
000060 cf 3a 73 be e7 1a c4 3d 0f 2f 50 be f6 df bc bd
       -0.23752902 0.09575444 -0.20330451 -0.09222405
000070 9f c8 4e 3e 0c fe 85 3e a2 86 2d be 7b 42 1e be
       0.20193718 0.26170385 -0.1694589 -0.15455048
000080 71 7b 00 3d 33 4c d6 3d 61 ac 5e bd 8e 67 a1 bd
       0.031367723 0.104637526 -0.054363612 -0.078810796
000090 aa 38 39 be 7e 70 e7 3d cb 9c 8f 3e 6d 04 11 be
       -0.18088022 0.11300753 0.2804931 -0.14161845
0000a0 2d 6f 0d 3e 95 e3 02 3e c5 8a 63 3e ba 8c 1c bd
       0.13811941 0.12782128 0.22220905 -0.038220145
0000b0 f0 a1 77 3b 09 46 58 3e 3b e3 2c 3e f8 76 90 3e
       0.0037785731 0.21120466 0.16883557 0.28215766
0000c0 ec 7a ab bd 71 bb e0 3d cb b8 3f 3e 90 9e 39 be
       -0.08373055 0.109732516 0.18722837 -0.18126893
0000d0 8f b4 60 3d 5c 19 61 bd 0d 3b 3d 3e d3 2a 05 be
       0.054859694 -0.054955825 0.18479557 -0.13004617
0000e0 20 34 53 3c fa de 25 3e db e5 7c be 22 95 68 be
       0.012890846 0.1619834 -0.24697058 -0.2271314
0000f0 89 d3 0d be c1 50 34 3e ad be 38 3e 52 da 48 be
       -0.13850226 0.1760893 0.18041487 -0.19614533
000100 9f d9 66 3d c9 ef 19 be 6c 88 fb bd 5d a7 6e 3e
       0.056359883 -0.15032877 -0.1228188 0.23306032
000110 4a 0f 04 3e c1 d4 aa bd 58 29 3a 3d 82 07 72 3d
       0.12896457 -0.08341361 0.045449585 0.05908919
000120 bb 03 76 3d 49 9f ca bd 26 85 2e be 70 ca 34 3e
       0.06006215 -0.098936625 -0.1704298 0.17655349
000130 31 9c 13 3d 59 37 e2 3d c5 2c d5 bd 40 bb 10 3e
       0.036037628 0.11045713 -0.1040893 0.1413393
000140 a6 92 45 3e 27 a7 2d 3e b6 13 a1 3d 36 8c 8a 3e
       0.19294223 0.16958295 0.07865088 0.27060097
000150 3f 33 d8 3b 11 c0 8b 3d 89 8d 8a 3e 16 d8 8c 3e
       0.006597906 0.06823743 0.27061108 0.2750861
000160 4c 0f e6 bd 03 bf 79 3e 8c 6b d4 3d 08 4a 26 bd
       -0.112333864 0.24389271 0.103720754 -0.040597945
000170 2f 86 73 3e 26 2f 0b be 55 0d 39 3e a6 2e 90 3e
       0.23781656 -0.13592204 0.18071492 0.2816059
000180 06 16 40 be cc 56 30 be 9b d6 8b be 68 6d 3c bd
       -0.18758401 -0.1722061 -0.27312168 -0.046002775
000190 65 df 79 be 92 3c cb bd e4 cc a8 3d ec 59 50 3e
       -0.24401625 -0.09923662 0.08242205 0.20346802
0001a0 78 de 19 3e 6f d3 24 3e 0b d2 d9 3d c3 ff 28 be
       0.15026271 0.1609628 0.10635766 -0.16503815
0001b0 ed 7f 61 be 6d 77 d6 b9 7f b6 82 3e 86 7a 92 3c
       -0.22021456 -0.0004090624 0.25529858 0.01788069
0001c0 60 b2 f8 bc f1 72 38 be 06 3e 08 be c8 bf 58 be
       -0.030358493 -0.18012597 -0.1330491 -0.21166909
0001d0 c5 b3 63 3e b2 66 37 bd 9c 6d 7d be 51 ef 13 3d
       0.22236545 -0.044775672 -0.24748844 0.0361169
0001e0 f6 6a 94 3c 5d 99 2c bd b8 fa c3 3d 6b 06 20 3e
       0.01811741 -0.042138446 0.09569305 0.15627448
0001f0 db 72 89 be 0e 87 4f be 2f 57 c3 bb ad 5f 87 be
       -0.2684544 -0.20266363 -0.005961321 -0.26440182

thgnn.feature_transform.3.weight f4 [128, 128]
000000 15 01 b0 bd a9 16 a1 3d 2d 8e 49 bc b5 7b 43 bd
       -0.085939564 0.0786565 -0.012301964 -0.047725398
000010 67 7b 13 bd 5a 97 95 bd 9d b1 81 3d 05 79 22 bc
       -0.036006358 -0.07304259 0.06332705 -0.009916549
000020 f0 00 5e bd 75 ea 69 bd ca 64 68 3d 21 7a 8f bc
       -0.054200113 -0.05710836 0.056736745 -0.01751429
000030 db d3 6e bc c0 72 e2 bc fd f8 44 bd 24 7e 8a 3c
       -0.0145768775 -0.027642608 -0.048089016 0.016905852
000040 3c 40 83 3d 12 21 29 bd 87 3e 2a 3c 5a e1 6e bd
       0.06408736 -0.041291304 0.010390884 -0.05832038
000050 b3 65 23 bd 77 a5 a4 3d 2f 02 ea 3b 58 6a a3 3d
       -0.03989191 0.080393724 0.0071413736 0.07979268
000060 52 fe aa bc d7 d6 45 bd 13 74 40 bd d5 c1 a8 3d
       -0.020873223 -0.04830059 -0.046985697 0.082400955
000070 cb c8 91 bd bc 5a 27 3d 99 40 88 3c a5 5c 0b 3d
       -0.07118376 0.040858015 0.016632365 0.0340239
000080 d0 84 61 3d 3a a1 ec bc d0 84 56 3d 43 f9 8b bd
       0.0550583 -0.028885473 0.052372754 -0.06834652
000090 ef 91 16 bd d3 78 74 3d 92 12 b7 3c 56 93 0a bb
       -0.036760267 0.05968554 0.022347722 -0.0021144948
0000a0 7d 2d d8 bc 92 19 6e bd f5 bd 46 3d 76 8f 83 3b
       -0.026388878 -0.058129855 0.048521 0.0040149046
0000b0 de 3b f9 bb 73 0b dc 3c e9 3c 99 3d d4 81 26 bd
       -0.0076060137 0.026860928 0.07482321 -0.040651157
0000c0 8c 3b cd bc 7b d5 74 3d b6 70 68 3d a4 c4 2f bd
       -0.025052808 0.059773903 0.056748115 -0.04291214
0000d0 22 9c b3 bd 1b 65 31 3c d0 76 44 3d ee 0c dd 3c
       -0.08770014 0.010827328 0.04796487 0.026983704
0000e0 40 e8 6a 3d dc 4a 85 bd 86 79 40 3d 7d 65 76 bd
       0.057350397 -0.06508419 0.046990894 -0.06015538
0000f0 fc ca 34 3d c9 06 86 3d 91 04 bc 3c 01 25 89 3d
       0.044138893 0.06544263 0.022951396 0.06696511
000100 d1 b4 5f bd 76 2b ad bd 2f d5 b8 bd c0 29 4c 3d
       -0.0546158 -0.08455555 -0.090250365 0.049844503
000110 d3 2d 16 3d 9b 78 90 bd 5a cb 18 3d e6 a4 9c 3d
       0.036664795 -0.07054254 0.037303306 0.076486394
000120 e4 8e a1 bd 8b 61 93 3d 52 40 ff 3b 30 43 2c 3b
       -0.07888582 0.07196339 0.00778965 0.0026285164
000130 f5 08 9e 3d 48 83 b0 3d e0 2e 18 3d 27 f5 9a 3d
       0.07716552 0.0861879 0.03715408 0.0756629
000140 25 45 14 3d d4 8f 99 3c 0c 93 aa bd c2 9e 32 3c
       0.036198754 0.01874534 -0.08328828 0.010902109
000150 5f 78 8b bd 6d a5 ba 3c a1 df af 3c 05 b5 11 3c
       -0.06810068 0.02278396 0.02146894 0.008893256
000160 af b2 87 bd 06 ef 70 bd bc a7 74 3d 1c 4c 3e 3d
       -0.06625878 -0.0588217 0.059730276 0.046459302
000170 dc 8f 27 3d 1f a9 03 bd c9 ce a8 bc 19 54 e0 bc
       0.04090868 -0.03214371 -0.020606415 -0.02738385
000180 da f9 82 3d 40 2a 34 bd 01 f5 4d 3d 68 a4 62 3d
       0.06395312 -0.043985605 0.050282482 0.05533257
000190 55 60 b0 bd 73 30 cb 3b e4 47 b9 bc 01 35 41 bd
       -0.08612124 0.006200844 -0.022617288 -0.04716969
0001a0 c6 46 1f 3d ba 42 87 bc 91 35 a4 3d 2e 80 55 bd
       0.038885854 -0.01651131 0.080180295 -0.052124195
0001b0 ee 36 28 3d 78 d6 99 bd 84 d5 4c bd 5c 6e 26 3c
       0.04106801 -0.0751161 -0.050008312 0.010158148
0001c0 d1 4c 98 3d 73 85 27 3d ad b1 97 bd 5c 2d 84 3b
       0.074365266 0.04089875 -0.07406936 0.0040337276
0001d0 cb df 6c bd 8d 31 a9 ba fc e7 a1 bd 9f e1 d2 bc
       -0.057830613 -0.0012908444 -0.07905576 -0.02574235
0001e0 49 e1 63 3d 9e 60 a3 bd 64 04 a5 bd 75 65 37 3c
       0.05563477 -0.07977413 -0.08057478 0.011193623
0001f0 7b 2f d8 3b 2e 01 6a bc 86 40 a3 3d 3e 69 6f bd
       0.006597457 -0.014282508 0.07971291 -0.058449976
000200 70 20 5e bd 2a 18 89 bd 60 c4 86 bc f9 e2 c5 bc
       -0.054230154 -0.06694062 -0.01645106 -0.02415608
000210 e7 13 5b 3d 6a 95 a4 bb 98 3c e7 3c e8 93 17 bd
       0.053485777 -0.0050226944 0.028227136 -0.03700629
000220 6d d7 92 3d 4b 9a 98 3d a2 6b a3 bd 6c 16 ba bc
       0.071699955 0.07451304 -0.07979514 -0.02271577
000230 2d 98 99 bd d8 62 19 3d 4f 27 9e bd ca 2e 31 bd
       -0.07499728 0.03744778 -0.07722341 -0.043257512
000240 a7 36 b1 3d dd db ac bd 30 16 83 3d ed 0e f3 3b
       0.08653002 -0.08440373 0.06400716 0.007417551
000250 94 18 8c 3d c7 1b 38 bd cc 6f 66 3d b0 b9 2e 3c
       0.068406254 -0.044948366 0.05625896 0.010664389
000260 e6 ea da 3b 62 1a 77 3d 57 be ad bd 60 cd 91 bd
       0.006680834 0.060327895 -0.0848357 -0.0711925
000270 5f 73 ad 3d 29 67 59 bd ea 7a 82 bd 30 9d 8d bb
       0.08469271 -0.053076897 -0.063711 -0.0043217167
000280 d6 35 f4 bc 82 0c 4d bc 56 5e 76 bd ae fe f4 3c
       -0.029810827 -0.012515189 -0.06014856 0.029906597
000290 8f 6d 9c bd a0 94 ea 3b b6 78 51 3d 10 1f 8b 3c
       -0.07638084 0.0071588308 0.05114051 0.016982585
0002a0 70 27 2d 3c 20 d0 53 3c 53 45 dc bc 06 af 98 bc
       0.010568485 0.012928039 -0.026888525 -0.018638145
0002b0 c3 0f 1c bd 44 67 76 bd 00 af 3f bd 23 58 ac 3d
       -0.03810097 -0.060157076 -0.046797752 0.08415248
0002c0 7d 8f 81 bc 34 a4 fd 3c 84 2e 76 3d 09 0b 0f bc
       -0.01581549 0.030962087 0.060102955 -0.008730658
0002d0 76 c4 42 bd 58 cb 75 bd 41 e5 0d bd 8c 39 01 3d
       -0.04755064 -0.060008377 -0.03464246 0.03154902
0002e0 6d 72 98 bd c0 ff 5d bc f4 b6 09 3d b8 36 91 3d
       -0.074437 -0.013549745 0.033621743 0.07090515
0002f0 a0 e5 d9 3c c8 32 8f 3c ee 26 73 3d 2e 4b 27 3d
       0.026598752 0.01748027 0.059363298 0.04084318
000300 e0 df ed 3c 68 7f e0 bc 9c ca 91 bd f8 66 9c bc
       0.029037416 -0.027404502 -0.07118723 -0.019092068
000310 47 7b 88 bc 60 b2 d4 3b fa e0 2c bc b4 43 12 3d
       -0.016660346 0.0064909905 -0.0105516855 0.035709098
000320 d4 3a 6f 3d 20 c7 12 bd 52 3f ad bd f8 fc 44 bd
       0.058405712 -0.03583443 -0.08459343 -0.048092812
000330 16 e7 32 bd ce 99 48 3d de 87 69 bd 8a 00 14 bc
       -0.043677412 0.048974805 -0.05701434 -0.009033332
000340 2d c8 9e bc 29 52 63 bd 0e 46 20 3d 28 cf 16 bd
       -0.01938256 -0.055498276 0.03912931 -0.036818653
000350 20 d5 95 bb 5a 70 7f bd 80 0f 12 bc 20 c3 4d 3c
       -0.0045725256 -0.062363006 -0.008914828 0.012558728
000360 c0 b7 6b bb 61 46 07 bd 94 01 d1 3c 7d d5 c8 bc
       -0.0035967678 -0.033026103 0.025513448 -0.024515862
000370 d6 dd 48 bd 3d 0c 86 bd 01 f5 99 bc fe c4 ae bd
       -0.049039684 -0.06545303 -0.018793585 -0.08533667
000380 c4 2f 94 3d b7 f4 2c bd 62 2d 16 bd 75 a8 dd 3b
       0.07235673 -0.042225566 -0.036664374 0.0067644664
000390 74 b4 bb 3c a3 be 16 bc e6 5d 78 3d e1 0c 53 bd
       0.022913195 -0.009200725 0.060636424 -0.051525954
0003a0 41 1e 01 3d 00 08 51 b9 59 4b 96 bd 8a 72 0c bd
       0.031522993 -0.00019934773 -0.0733859 -0.03428892
0003b0 b4 44 b8 3c c5 84 88 3c d2 5e 83 3d 8a 33 72 3d
       0.022493698 0.016664872 0.0641457 0.059131183
0003c0 db b6 46 bd 60 81 1f bd 5b 1b 9b bc 9c af 81 bd
       -0.04851423 -0.03894174 -0.018933943 -0.06332323
0003d0 a3 16 ca bc 7d 15 95 bd dd e1 07 3d 88 dd 7f 3d
       -0.024668997 -0.07279489 0.033174384 0.062467128
0003e0 3a 0b c7 3b 96 96 81 bd 2e 29 8c bd 0b 94 0d bd
       0.0060743364 -0.0632755 -0.06843792 -0.034565013
0003f0 0a 83 d1 3c 4c 26 de 3a 85 6f 5f 3c 7b 9b aa 3d
       0.02557518 0.0016948669 0.013637428 0.08330437

thgnn.feature_transform.3.bias f4 [128]
000000 7d ae 56 3d 35 73 7f 3c e4 3f 23 3d b0 5f b2 3d
       0.0524125 0.015591432 0.039855853 0.08709657
000010 7d 09 83 3d 0a e0 73 3d d9 25 75 bd 3e 41 8e bd
       0.06398294 0.059539832 -0.059850547 -0.06946038
000020 32 a1 9e 3d 40 73 94 3d 8b 87 4c 3d de 52 d9 3c
       0.07745589 0.07248545 0.04993395 0.026528772
000030 1b 19 8a bc 30 67 22 3d 8f 6d 45 bd e4 e2 e9 3a
       -0.016857674 0.03964919 -0.048200186 0.0017844108
000040 27 72 ba 3d 64 ea 61 bd 93 cb 89 bd 4b a4 2a bc
       0.09103804 -0.055155173 -0.06728282 -0.010415147
000050 9b 31 2a 3d 51 82 98 bd c7 0f 60 3d 75 7f 89 3b
       0.041551214 -0.07446731 0.054702546 0.0041961023
000060 ec 12 70 3c b6 db 5b 3d 43 34 4c 3d 1b e0 29 bc
       0.014652949 0.05367633 0.04985453 -0.010368372
000070 d1 30 b0 bd 1d e6 90 3d 28 02 c4 bc 35 f7 27 bd
       -0.08603061 0.070751406 -0.02392681 -0.04100724
000080 60 c5 d3 3c 31 ce 65 3d 1d 91 ab 3c b8 5e 43 bd
       0.025850952 0.056104843 0.020943219 -0.047697753
000090 77 02 93 bd 57 87 28 3d d4 b6 fc 3c 01 fb 6c 3d
       -0.071782045 0.041144695 0.030848898 0.057856563
0000a0 41 a7 a8 3d 03 a6 59 bd 68 5a c4 3c 3d 29 ac 3d
       0.08235026 -0.053136837 0.02396889 0.08406303
0000b0 3c 39 04 bb bc 4f d1 bc 94 d8 94 bd af b9 a3 39
       -0.0020175716 -0.025550716 -0.072678715 0.00031228128
0000c0 57 75 2c bd 12 09 7e bd 56 08 b7 bd 29 9c 01 3d
       -0.04210409 -0.06202037 -0.08937137 0.031643067
0000d0 c6 8e ae bc 5f 1c 04 3d b1 6c 3e 3d eb 65 a9 bd
       -0.021308314 0.03225362 0.046490375 -0.082713924
0000e0 10 fa 16 bd a6 48 ac 3d ba 0c c1 bc 82 17 5f 3d
       -0.036859572 0.08412294 -0.023565639 0.05446578
0000f0 d5 82 8c bd 52 f0 92 3d 80 b7 23 3d a6 fa 66 bd
       -0.06860892 0.07174744 0.03996992 -0.05639138
000100 62 ef e9 3c a9 61 68 3d 48 7b 5b 3d bb fe 23 3c
       0.02855653 0.05673376 0.053584367 0.010009463
000110 d8 37 2c bd 13 44 d7 bc 3c e8 6a bd 8f 2b b7 3d
       -0.042045444 -0.026277578 -0.057350382 0.08943855
000120 c4 f9 c0 3c 12 f8 ea 3c d8 b0 3e bd 1a 4f 8a bd
       0.023556598 0.028682742 -0.04655537 -0.06753369
000130 51 65 e0 bb cf 7f 56 3d a9 7f 7c 3d 79 6f 51 bc
       -0.0068480154 0.05236798 0.061645184 -0.012782925
000140 2f f9 31 3d 79 d6 cb bb 3b f3 0e bd 0b 26 bf 3d
       0.04345053 -0.0062206355 -0.03489993 0.09333428
000150 70 2b 89 3c d2 8c aa 3d 30 5a c1 bd 3b 3a 07 3c
       0.016744345 0.083276406 -0.0944103 0.008253629
000160 a9 df 13 bd 39 69 98 3d ab 71 41 3d 66 01 84 3c
       -0.03610197 0.07441945 0.047227543 0.016113948
000170 6b 2e 72 3d 53 72 63 bd d8 7a 9a bc 89 f1 28 3d
       0.0591263 -0.05552895 -0.018857405 0.04124597
000180 c6 b2 73 bd 0a 70 82 3c 7e f9 d3 3c 06 ae a5 bd
       -0.059496664 0.015922565 0.025875803 -0.08089833
000190 98 f9 32 bd 6e df 8f bd 9e 15 a1 bd 41 1b 1e bd
       -0.043695062 -0.07025038 -0.07865451 -0.03860021
0001a0 2c c0 bc 3c 93 6d ef 3c e3 36 38 3d 33 14 06 3b
       0.023040853 0.029227054 0.04497422 0.0020458817
0001b0 a0 f0 7d bd 4d 6f b6 bd 91 fe 9e 3d 42 f3 1f 3c
       -0.061997056 -0.08907948 0.077633984 0.009762587
0001c0 b6 da 7a 3d dc 4d b4 bd 2a 31 53 bd 84 6a 8d 3b
       0.061243735 -0.08803913 -0.05156056 0.004315676
0001d0 fd 53 8a 3d 04 aa 8d bd e9 04 34 bd c5 6f 77 bd
       0.06754301 -0.069171935 -0.043949995 -0.060409326
0001e0 c8 4c 5d 3d c3 2c 38 3a 4c 2c 14 bd 72 0a 81 3d
       0.054028302 0.0007025713 -0.036175057 0.063008204
0001f0 47 67 5e bd b1 44 81 bc 61 b4 03 bd 2c 4b c4 bc
       -0.05429771 -0.015779825 -0.032154445 -0.023961626

thgnn.conv_layers.0.bias f4 [128]
000000 5f a2 4a 3a 3b 84 b9 bb 00 00 00 00 20 cb 04 3c
       0.00077298837 -0.005661515 0.0 0.008105069
000010 5b d5 46 bb 06 13 19 3c 68 0c f4 bb c7 45 1c bc
       -0.0030339572 0.009342914 -0.007447768 -0.009538121
000020 35 ee 0d bc e4 df a8 3b ac 16 0c bc 39 9c c8 bb
       -0.00866275 0.005153643 -0.008550327 -0.006122139
000030 56 aa 03 bc aa 55 d7 3b de bc 77 bb 22 dd 22 bb
       -0.008036217 0.0065714912 -0.0037801783 -0.0024851044
000040 05 f8 00 3c 32 38 9e bb 00 00 00 00 38 9b e1 bb
       0.007871632 -0.0048284763 0.0 -0.0068849586
000050 ba b7 39 3b f4 02 2c bb e3 7d 91 ba 01 45 97 3b
       0.002833827 -0.0026246877 -0.0011100139 0.00461638
000060 0a 99 e7 bb 12 74 96 bb 29 b5 0c 3b 0d 9e 82 bb
       -0.007067804 -0.0045914734 0.0021470285 -0.0039861263
000070 4e 5e f5 b9 ee 4b c4 bb 84 cf b2 3a b7 3f c2 b9
       -0.00046800304 -0.005990497 0.0013642167 -0.00037050035
000080 8f 82 28 3c 06 67 fa bb 2c 51 6c 3b d9 13 ed bb
       0.010285034 -0.007641676 0.0036059124 -0.007235032
000090 90 68 d2 3a 12 9f 1c ba 47 aa 23 3c eb 5a f2 bb
       0.001605289 -0.0005974631 0.009989328 -0.007396092
0000a0 1c 67 fd bb 25 a1 08 bc d9 c0 79 3b 48 26 44 3b
       -0.007733239 -0.008339201 0.003810933 0.0029930044
0000b0 3f fe dd 3a 1d f1 bf bb 74 70 03 bc fe 6c a6 bb
       0.0016936733 -0.0058576004 -0.008022416 -0.005078911
0000c0 94 7a 54 bb a7 18 52 bb 0b 80 57 3a eb 47 86 bb
       -0.0032421695 -0.003205815 0.0008220679 -0.0040979288
0000d0 21 d0 eb 3b 88 d5 9a bb 40 28 0d 3b cc fc 43 39
       0.0071964418 -0.004725162 0.0021538883 0.00018690823
0000e0 ab e6 9e bb 2c 2d 03 bc 18 b5 80 ba 6d 7d c3 ba
       -0.004849275 -0.008006375 -0.0009819595 -0.0014914699
0000f0 ea e3 9e bb da e7 b3 bb c4 78 80 bb 0b ed 76 bb
       -0.004848947 -0.0054902853 -0.0039206464 -0.003767791
000100 e6 88 5a b9 37 2e a8 3b 00 00 00 00 74 bd d0 bb
       -0.00020841099 0.0051324624 0.0 -0.006370241
000110 52 aa d6 bb 00 00 00 00 a9 64 c3 bb dc 0e a1 bb
       -0.0065510655 0.0 -0.0059629274 -0.0049151015
000120 ca a7 f7 3b 70 d9 d8 3b af a5 db bb fa 45 dd bb
       0.007557844 0.0066177174 -0.0067031006 -0.0067527266
000130 51 25 a1 bb 36 68 ab 3b 81 9a 17 3c 5f f1 36 bb
       -0.0049177785 0.005230929 0.009253145 -0.0027914864
000140 c2 23 a7 bb 6b de 92 3a c3 c5 94 3b bb bc 76 3b
       -0.005100698 0.0011205202 0.0045401766 0.0037649113
000150 31 53 b1 3b 34 72 94 3b 00 00 00 00 00 00 00 00
       0.0054115285 0.0045302156 0.0 0.0
000160 fc 46 bc 3b de b2 df bb d0 42 18 3c 4e d2 e7 39
       0.0057457667 -0.0068267426 0.009293273 0.00044216443
000170 2f 91 8d 3b fa fc d4 bb 60 de e5 bb 4e cf ec bb
       0.0043202857 -0.0064998837 -0.0070150346 -0.007226861
000180 97 f4 3c 3b 1b a4 a1 3b f6 cb cd 3b 25 07 96 b9
       0.002883231 0.004932893 0.0062804176 -0.00028615553
000190 2e c2 09 bc 5c 75 8a 3b 2a 94 9d 39 54 aa ee 3b
       -0.008408112 0.004225416 0.00030055764 0.0072834883
0001a0 06 90 f9 ba fa 71 11 bc af cf d5 bb c5 f1 f8 b9
       -0.0019040115 -0.008877272 -0.006525002 -0.00047482378
0001b0 77 1d 99 bb 00 00 00 00 69 26 c2 3b 69 52 93 bb
       -0.004672702 0.0 0.005924989 -0.004495908
0001c0 52 30 4c bb 9e 73 5a 3b 06 a5 0a 3c 11 95 5b 3b
       -0.003115673 0.0033333073 0.008462196 0.0033505599
0001d0 ac 91 b3 3b d0 01 8b 3b 76 3f b6 bb c0 75 8b bb
       0.005480012 0.0042421594 -0.0055617644 -0.0042559803
0001e0 e5 25 be 3b 09 02 a2 3b da 0c 01 bc 71 0a fb bb
       0.005802857 0.0049440903 -0.007876599 -0.007661157
0001f0 15 6f 7b 3b fa 3f ac 3a a3 63 6a ba 85 b9 96 3b
       0.003836577 0.0013141625 -0.00089412386 0.0045997524

thgnn.conv_layers.0.lin.weight f4 [128, 128]
000000 74 7e a5 3d 51 45 58 3d 08 bd 94 3d 36 73 8f 3d
       0.0808076 0.05280048 0.07262617 0.070043966
000010 42 a1 d1 3c 18 f1 09 be c4 cd 17 bb 70 71 0e bd
       0.025589589 -0.13470876 -0.0023163417 -0.03477615
000020 5c 60 7c bd 6d 19 86 bd 66 cd 2c bd 51 8a 65 bd
       -0.061615333 -0.06547818 -0.04218807 -0.056040112
000030 ec 12 11 3e 9f b8 54 bd 48 69 67 3b e3 58 c9 bc
       0.14167374 -0.05193388 0.0035310555 -0.024578517
000040 70 87 f7 3d 85 d2 8f bd b6 42 7e 3d 1c af 16 be
       0.120863795 -0.07022575 0.06207534 -0.14715236
000050 b5 58 11 3d b8 c7 d2 bd aa bd 42 3d a3 91 51 3d
       0.03548499 -0.102919996 0.04754416 0.05116428
000060 a5 52 54 3d 54 cc bc 3c 25 82 54 bd ca a8 d1 bd
       0.05183663 0.02304665 -0.051881928 -0.10237272
000070 de 8e cd bd d0 00 be bc 84 71 0b bd 23 8f 0f 3e
       -0.100370154 -0.023193747 -0.034043804 0.14019446
000080 1f 07 9c 3d 2c b8 85 bc b4 c2 d6 3d a5 7b 2a bc
       0.07618546 -0.016323172 0.104863554 -0.010405456
000090 5d 26 14 be 2e 49 43 bd 88 df 0b 3e 3a 5f a9 3d
       -0.1446776 -0.04767721 0.13659489 0.08270116
0000a0 00 e3 e7 ba f5 18 9e bd fd 99 03 bc 62 4d f6 ba
       -0.0017691553 -0.07719604 -0.008032319 -0.0018791372
0000b0 0e 69 e2 bd e7 3f b3 bc 37 c5 d8 bd 49 7f 87 3d
       -0.11055194 -0.021881057 -0.10584491 0.066160746
0000c0 4e c0 59 3d a0 f3 93 3c f9 5b 55 3d 0a f2 3c 3d
       0.05316191 0.018060505 0.052089665 0.046129264
0000d0 42 5d bc bd 2c c4 f2 bc 00 a7 01 be 9e 63 1d 3d
       -0.09197475 -0.029634558 -0.12661362 0.03842508
0000e0 5a 73 cd 3d ef db 37 bd 23 4c a8 3b 53 90 01 3e
       0.10031767 -0.04488748 0.0051360293 0.12652712
0000f0 24 62 af 3d 53 a0 8d 3d 81 e8 65 3d 13 a8 63 3c
       0.08563641 0.06915345 0.056129936 0.0138950525
000100 fa 3d 11 3e f4 59 d3 bd 6c b0 ea 3d b2 88 c4 bc
       0.14183798 -0.103198916 0.11459431 -0.023990963
000110 21 11 ab bd d2 6f f8 3d 2a 0b 1d 3e 37 0e 07 3e
       -0.083528765 0.12130703 0.1533629 0.13189016
000120 a9 2f 33 3d be d7 0d 3c 4b 80 64 bd ef b8 94 3c
       0.043746624 0.008657394 -0.055786412 0.01815459
000130 11 b5 bc 3c c5 4c 42 bd 2e a6 99 bd 97 fb c1 bd
       0.023035558 -0.047436494 -0.075023994 -0.09471815
000140 84 1c 44 3d d3 ef 8c 3d ac 6a 08 3d 0f 5e df 3d
       0.047878757 0.0688168 0.033304855 0.10906612
000150 e0 8f 35 bd 3e 31 88 bd d7 18 e8 3d 4e a5 0b 3d
       -0.044326663 -0.06650017 0.11332863 0.034093194
000160 7e b9 bf 3b 34 7e 39 3d 61 3d c0 bd 1e 1f 93 bd
       0.00585097 0.045286372 -0.09386707 -0.071836695
000170 bc 1b 04 3e d9 dc 88 bd b4 56 50 3c 0f 3c fe 3d
       0.12901205 -0.06682748 0.012715984 0.12413799
000180 ba 01 06 3e 5a 31 b4 3d e9 d3 1a 3d 41 47 07 be
       0.13086596 0.087984756 0.03779975 -0.13210775
000190 ee 2d 4d bc fe d0 2e 39 f6 84 48 bd 98 f9 cf bd
       -0.0125231575 0.00016671789 -0.048954926 -0.10155028
0001a0 d3 f1 d5 bd 29 b4 f9 3d af 78 c5 bb d7 d8 5a bd
       -0.10446515 0.12192566 -0.0060263495 -0.05342945
0001b0 97 8c a1 bd c9 2f 7f bd 63 3d 1c 3e 7b 04 47 bd
       -0.078881435 -0.06230143 0.15257792 -0.048588257
0001c0 3c 9c ae bd 81 ef 14 be e4 41 e7 3d e9 2f 14 3e
       -0.08525893 -0.14544488 0.112918645 0.14471401
0001d0 8e db df 3d c2 be 05 3e ca 41 9f bc a8 1a fc bd
       0.109305486 0.1306105 -0.01944055 -0.12309772
0001e0 bb 89 48 bd 1b ec d1 3c 3b c6 0f 3e bb c1 ae 3c
       -0.048959475 0.02562528 0.14040463 0.021332612
0001f0 0d 81 97 3d c5 43 0a 3e 77 33 2e bd 19 14 09 be
       0.07397661 0.13502415 -0.04252955 -0.13386573
000200 3f 46 9a bd be 1e 1c be 65 6b 80 3d 01 c8 90 bd
       -0.0753293 -0.15246102 0.06270484 -0.07069398
000210 67 23 00 bd 32 e7 b5 bd 93 8e 39 bd 8b 75 15 3e
       -0.031283762 -0.08881988 -0.045301985 0.1459562
000220 eb 9f 05 3d e1 1e 93 bd 1d 02 f6 3d 0c a8 c7 bd
       0.032623213 -0.07183624 0.12012122 -0.09748849
000230 60 21 d3 3c a1 a5 f4 bd 80 b8 d2 ba f3 c3 ee bd
       0.02577275 -0.11945654 -0.0016076714 -0.11658468
000240 6b c3 a5 3d 90 03 d9 bc c5 a3 6d 3c 5f 5a cc bd
       0.08093914 -0.026490957 0.014504378 -0.099781744
000250 2f 92 12 3e 93 6d 0d 3e 7d cf ca 3d c4 6e 1a be
       0.14313577 0.1381133 0.099028565 -0.15081316
000260 1c 19 22 be a4 80 d5 bd da 41 8e 3d a5 cb 99 3d
       -0.15829891 -0.10424927 0.06946154 0.07509545
000270 88 77 4a 3d bc 12 fd bd d7 8f af 3d 6c 17 0e be
       0.0494304 -0.12357089 0.08572357 -0.13876122
000280 65 cd 14 be b5 11 8a bd 60 ef ac 3d b3 e9 d8 bd
       -0.14531477 -0.067416586 0.08444095 -0.105914496
000290 35 d8 aa 3d 5f 1e 91 3d 08 79 8c 3d d4 d3 17 be
       0.083420195 0.07085871 0.068590224 -0.148269
0002a0 40 d8 f3 bc b6 50 1b be 2c af 12 bd 95 28 b0 3d
       -0.029766202 -0.15167508 -0.03581159 0.086014904
0002b0 5b 05 e8 bc 71 ad 19 3e 42 d4 06 3e d5 f1 25 bd
       -0.028322866 0.15007569 0.13166907 -0.040513832
0002c0 dd 9e 42 3c ca 05 ba 3d 25 cc ce bb ce 92 d3 bc
       0.011878696 0.090831354 -0.006310957 -0.025826838
0002d0 aa 36 e8 3d 8a 4c fb bd cb d1 90 bd 28 4d fd bc
       0.11338551 -0.12270458 -0.07071265 -0.03092058
0002e0 2c 2a 10 3e 42 77 15 be 8f 3f d3 bd 66 a5 94 bd
       0.14078587 -0.14596274 -0.10314857 -0.0725811
0002f0 bb 25 5b bd 51 5d 0c be 52 8b f2 bd 33 b0 8e 3c
       -0.05350278 -0.13707472 -0.118429795 0.017418003
000300 b4 d9 ea 3d d3 2c ac 3c 7e 74 bb 3c ab 5d 01 3e
       0.11467305 0.021017468 0.022882696 0.12633388
000310 c5 49 2b bb 4a df a3 3d f7 ea c8 3c 32 ef ac bd
       -0.00261365 0.080015734 0.024526102 -0.084440604
000320 ad 08 b8 3d 53 ad 91 3c 28 a2 63 bc e4 cc e9 3d
       0.0898603 0.017782843 -0.0138936415 0.11416033
000330 a3 b2 8f 3d 40 56 50 3d 71 42 ba bd 30 f7 ca bb
       0.07016494 0.050863504 -0.09094704 -0.006194018
000340 67 4e bb bd b5 31 56 bd 9f 38 68 bd 57 ec a1 3c
       -0.091458134 -0.052293498 -0.056694623 0.019766016
000350 e0 8f ae 3b 5a 7c 37 3d 12 99 f0 bd 77 32 1b bd
       0.00532721 0.044796325 -0.11747946 -0.037889924
000360 40 b5 82 bc 76 45 e2 3d a2 cc 80 bd 24 37 a8 3d
       -0.015955567 0.11048405 -0.062890306 0.08213642
000370 67 a4 16 3c 16 59 fb 3d 9d f0 13 be 74 14 ba 3d
       0.00919447 0.12272851 -0.14447255 0.090859324
000380 80 e2 61 bd 1a 8f bc bd 9c 6c e4 bd d9 0b fc bb
       -0.055147648 -0.09206982 -0.11153528 -0.007691842
000390 be e4 ee 3c 2b ef 94 bd 88 28 3a bd 40 f7 45 bc
       0.029161807 -0.0727218 -0.04544881 -0.012082875
0003a0 48 43 7d bd 07 a6 57 bc 54 9b e1 3d 09 cc 11 be
       -0.061831743 -0.013162143 0.110159546 -0.1423799
0003b0 60 8e a8 bd 44 9d 4c 3d 6c ce a1 bd 03 c5 12 ba
       -0.08230281 0.049954668 -0.079007 -0.0005598815
0003c0 7f 8c 0d 3e ee bc e9 bd 50 d1 15 be 7a cd 46 3d
       0.13823126 -0.114129886 -0.14630628 0.0485358
0003d0 8a 60 18 3e 88 75 05 be 91 82 ed 3d 4b 79 40 bd
       0.14880577 -0.13033116 0.11597169 -0.046990674
0003e0 34 1b 8d bd 40 ed a8 3d 6a ab 12 3e dc 84 a9 3c
       -0.06889954 0.08248377 0.14323202 0.020693235
0003f0 ba 20 7e bd db a6 75 bd 00 ad 42 bd 42 52 1d be
       -0.06204293 -0.05997358 -0.047528267 -0.1536341

thgnn.conv_layers.1.bias f4 [128]
000000 4a 8c 9e 3a 2e 49 b1 3b 00 00 00 00 b6 ef a6 3b
       0.0012096253 0.005410335 0.0 0.0050944937
000010 50 a5 89 bb 90 a5 12 3c ce ff cc bb db 3e 15 bc
       -0.004200615 0.008950606 -0.00625608 -0.009109224
000020 ca ca 03 bc 79 15 f6 3b e1 72 fc 3b c7 6a 6b 3b
       -0.008043954 0.007509884 0.0077041243 0.0035921799
000030 67 60 ef bb 6f 58 fc 3b 99 4e f9 bb e4 7f 2e bc
       -0.007305193 0.007700972 -0.0076082465 -0.010650609
000040 d7 ed 8f 3b 2a fa 76 3b df 2e d7 ba 4e e5 04 bc
       0.0043923664 0.003768573 -0.0016417167 -0.008111311
000050 45 76 d8 3b a2 7c 90 3a 99 3f 18 bb e1 77 b0 3a
       0.0066058957 0.0011023472 -0.0023231267 0.0013463461
000060 d5 57 6a 3b b3 00 dd 3b 68 ab aa bb 80 8d 8d 3a
       0.0035757918 0.006744468 -0.0052084215 0.0010799617
000070 17 16 e4 3b 2b 55 e5 bb f8 1f 73 3b 80 69 ee ba
       0.006960641 -0.006998678 0.0037097912 -0.00181894
000080 6e da 11 3c 6f 72 c5 bb d5 e1 bc bb 6d c7 1a bc
       0.008902175 -0.0060256044 -0.005764226 -0.009446961
000090 01 76 e6 bb 12 ad 4e ba 61 e0 de bb d8 86 07 bc
       -0.00703311 -0.0007884066 -0.0068016504 -0.008271895
0000a0 77 3f 99 bb aa f2 aa 3b 14 87 06 ba 25 85 60 3b
       -0.004676755 0.005216916 -0.00051318225 0.0034259048
0000b0 ba 38 54 3b 19 31 a1 bb 7b 15 f3 bb e2 78 71 bb
       0.0032382444 -0.004919183 -0.007418332 -0.0036845733
0000c0 38 c9 58 ba 99 87 f2 bb c4 cf c2 bb 67 bd de bb
       -0.000826973 -0.0074014184 -0.0059451777 -0.006797481
0000d0 21 54 39 3c 54 80 8f ba 0e 37 bb 3b ae 84 0a 3c
       0.011311562 -0.0010948279 0.00571335 0.008454485
0000e0 1a 19 94 3b 30 29 fa bb 45 a2 c7 3b 14 5d cb bb
       0.004519594 -0.0076343045 0.006092342 -0.006206164
0000f0 14 a3 06 3a 28 18 e6 bb 70 18 b4 3b f6 70 25 3c
       0.0005135995 -0.0070219226 0.0054960772 0.010097733
000100 3d 66 1d 3c 2d 85 93 bb ec af 11 bc 71 90 f9 ba
       0.009606895 -0.00450196 -0.008892041 -0.0019040239
000110 aa 88 b1 bb cd 24 18 3c 20 88 c0 bb 36 1b d3 bb
       -0.005417903 0.009286118 -0.0058756024 -0.006442453
000120 f8 d4 1f 3b a2 13 88 3b 7e e4 67 ba 0b b9 02 bc
       0.0024388414 0.004152731 -0.00088459987 -0.007978688
000130 3d 1c 22 3b 3b 74 f4 bb c6 1f bc 3b e0 30 17 3c
       0.002473607 -0.007460145 0.0057410924 0.009227961
000140 7b dd 4b ba ee a3 a9 ba 2e c7 b2 bb 04 79 98 3b
       -0.00077768386 -0.0012942532 -0.005455873 0.004653098
000150 db 7e 18 bc 7c e7 0e 3c 7d fb 26 3c d3 81 c4 3b
       -0.009307588 0.008722182 0.010191795 0.0059969216
000160 09 76 bc 3b c3 e6 d2 bb 47 be 38 bb ea d3 19 bc
       0.0057513756 -0.0064362003 -0.0028189586 -0.009388903
000170 e3 83 8b 3b 5d fb b9 bb 65 4c 7e 3b d0 b8 c4 bb
       0.0042576655 -0.005675717 0.003880286 -0.0060034767
000180 18 cc 75 bb fb aa 99 3b 04 f2 6e 3b 30 23 0e 3c
       -0.0037505683 0.004689572 0.003646017 0.008675382
000190 7d 80 b0 bb a8 55 8b 3b e6 50 3e 3b 84 c3 b6 3b
       -0.0053864107 0.0042521544 0.0029039918 0.0055775065
0001a0 e6 d7 be 3b e6 af e6 bb 33 26 d2 bb ac e6 80 3b
       0.005824077 -0.0070400117 -0.006413245 0.003933748
0001b0 8a 0d f7 bb d4 12 c5 3b dc e1 84 3b 07 f7 ea bb
       -0.007539456 0.0060142074 0.004055245 -0.0071705612
0001c0 4d a6 d2 bb 78 3a 84 3a 55 ef 0b 3c f0 3c f7 3a
       -0.006428516 0.0010088226 0.008540948 0.0018862765
0001d0 50 ab 1a 3b 1e fc 12 3b d8 f5 b8 bb 16 70 57 bb
       0.0023600645 0.0022428106 -0.0056445412 -0.0032873205
0001e0 24 b5 88 bb c3 17 07 3c e2 7d b8 bb 4c 81 28 3b
       -0.0041719843 0.008245411 -0.005630241 0.0025711833
0001f0 07 b5 2c bb 35 f7 9e 3b da a1 d0 bb 7b e7 0d bc
       -0.0026353018 0.0048512467 -0.0063669505 -0.008661146

thgnn.conv_layers.1.lin.weight f4 [128, 128]
000000 53 e1 12 3e 33 71 db 3d 13 da 83 3c 6f b4 7e bd
       0.14343767 0.107149504 0.016095197 -0.062183794
000010 1b fa 43 bd 8a e0 19 3c ca 5a 1e 3d 49 9f d4 3d
       -0.04784594 0.009391913 0.038660802 0.10381944
000020 49 e9 e1 3d 46 b8 cc 3c d3 fa 36 bd e6 26 19 3e
       0.11030824 0.024990212 -0.0446728 0.14956245
000030 fb a2 b8 bd 6e a0 fa bd 01 ba 58 ba 41 6f 97 3d
       -0.09015461 -0.12237631 -0.0008267463 0.07394267
000040 4f 77 ab 3c 4c e1 f7 bc b1 54 b8 3d 10 4a ea bd
       0.020930914 -0.030258797 0.090005286 -0.114399076
000050 80 df 08 3c 0c 96 cc 3d dc eb c3 bc 14 cc 14 3e
       0.008354068 0.09989557 -0.023916177 0.14530975
000060 11 8c 92 bd e4 4e d2 bd f0 54 0b 3e d3 36 cf 3c
       -0.07155622 -0.102689534 0.1360662 0.025294697
000070 1a 0d 01 be 9b cb 71 bd 6a f6 7d 3d 24 db 36 bd
       -0.12602654 -0.059032064 0.062002577 -0.044642583
000080 6b 4d 0a 3e f1 d6 18 be e8 c4 9b 3d 84 42 70 bd
       0.13506095 -0.14925744 0.07605916 -0.058657184
000090 88 82 1c be 6c 81 d9 bd 4f b2 c2 3d 2c 78 2f bd
       -0.15284169 -0.106203884 0.09506666 -0.042839214
0000a0 4c 38 06 be d3 92 1d 3e 27 e9 2a 3d 39 7d ef 3d
       -0.13107413 0.1538804 0.041726258 0.11693806
0000b0 fc 09 d8 bd e1 1b ba bd 87 a3 fa 3d ae 05 05 3e
       -0.10548779 -0.09087349 0.122382216 0.12990448
0000c0 f7 4f 9a bb 48 df b2 bd fb 08 89 3d 1e 22 16 3b
       -0.0047092396 -0.08733994 0.06691166 0.002290852
0000d0 cf 74 b8 3d 7d 89 18 be dc fc b4 bd cb ec 06 3e
       0.090066545 -0.14896198 -0.088372916 0.13176267
0000e0 fc d0 78 bc 3f b2 0c 3e 17 55 39 3c 95 65 9d 3d
       -0.0151865445 0.1373987 0.011311791 0.07685391
0000f0 51 cd 8e 3d 9e 5f 41 3c b6 f3 f9 3d f7 db 3b 3b
       0.06972755 0.011802582 0.12204687 0.0028665045
000100 bc 60 e5 3d 0e 64 8e bd 8c 9b d8 3d fe a1 aa bd
       0.11200091 -0.06952678 0.10576543 -0.08331679
000110 4e e5 4a bd ff cc fc bb 1d 31 2f bd 85 9c 96 3d
       -0.04953509 -0.007714867 -0.042771447 0.073540725
000120 04 00 08 be 68 18 15 3c f6 91 8e 3d 7d df cf 3d
       -0.13281256 0.009100057 0.069614336 0.10150049
000130 87 82 2b 3d 3d d7 f5 bd 6b 14 5e 3d 6f 91 10 3d
       0.041872527 -0.12003944 0.05421869 0.035294946
000140 df 4b c5 3a 16 c5 ce bd 2e f1 a6 bd dd b4 48 bd
       0.0015052519 -0.10096185 -0.0815147 -0.04900061
000150 5d e9 63 bd 7f 4e ee bd 6d c7 f6 bd c7 6b 8a 3d
       -0.055642474 -0.11636066 -0.12049756 0.06758838
000160 00 0a d3 3c 35 81 9e 3d 37 2e a0 bd d8 44 9c 3d
       0.025761604 0.07739488 -0.07821315 0.076303184
000170 9b e2 54 3d 39 d5 c7 bd 4d bd 69 ba 49 e2 91 bd
       0.05197392 -0.09757466 -0.00089164526 -0.071232386
000180 a1 d9 2a 3b f9 6b a6 3d 69 43 a9 bd 5c 98 d1 3d
       0.0026069658 0.08126063 -0.082648106 0.10234138
000190 13 f5 1d bb 2b f5 ca bb e8 ad 37 3c b8 be fc bb
       -0.0024102374 -0.006193777 0.011210896 -0.007713165
0001a0 6b d9 e1 bc 48 bf c4 3c 32 46 0f be 1e 4e 00 be
       -0.027569493 0.024016991 -0.13991621 -0.125298
0001b0 e7 d9 4e 3c 70 47 42 bd ce f2 3f 3d 45 88 62 3c
       0.012625194 -0.04743141 0.046862416 0.0138264345
0001c0 fb 1a a8 3d db e6 0b 3e 97 5e ac bd 7a 24 3e bb
       0.08208271 0.13662283 -0.08416479 -0.002901344
0001d0 3a 8b 98 3d 83 05 12 be a1 25 3a 3d e4 9f 95 3d
       0.0744843 -0.14259915 0.045446042 0.07305887
0001e0 17 2f d1 bb 35 12 db bd ce 40 06 3e db 13 0f bd
       -0.0063837874 -0.10696832 0.13110659 -0.034931045
0001f0 5d e3 f7 3d 29 a5 b0 bd 08 ec 8e bd 1b f8 e4 3d
       0.12103913 -0.08625252 -0.06978613 0.11180135
000200 d6 83 83 bd 16 0a d2 3d 10 db 2f 3d 60 a5 ba bd
       -0.0642163 0.1025583 0.042933524 -0.09113574
000210 39 d4 14 3e 7c d5 f7 bb 93 57 1c 3b f4 fa b4 3d
       0.14534082 -0.007563291 0.002385591 0.08836928
000220 df 48 fc 3d 42 3c 17 be 0b 40 04 bc df 60 d8 bc
       0.123185866 -0.1476908 -0.00807191 -0.02641338
000230 41 32 9f bd 40 d7 20 be f2 68 59 3b 6b 1f 01 be
       -0.07773257 -0.15707111 0.0033174125 -0.12609641
000240 1e c9 4a 3c c1 fd e7 bd fc b2 a1 bd 9e 61 d7 3d
       0.012377052 -0.113276966 -0.07895467 0.10516666
000250 b6 a7 07 3e 9d e9 f1 bd 8e 11 ff 3d 60 24 f2 bd
       0.1324757 -0.11812136 0.1245452 -0.11823344
000260 7a 9f f6 3c a8 b5 f9 bc f4 21 b9 bd 36 6c 46 bd
       0.030105341 -0.030482128 -0.09039679 -0.04844304
000270 0b 48 4a bd cb 37 b7 bd 95 3d 13 bd 1c fe 4a 3b
       -0.04938511 -0.089461885 -0.0359474 0.0030974215
000280 ba f3 73 bd 63 8e dc bc c7 8a 94 bc ab 2f a0 bd
       -0.059558608 -0.026923364 -0.01813258 -0.07821592
000290 05 a1 9b bd 03 26 1f 3d 4d a3 a0 3d 4e e8 61 3d
       -0.075990714 0.03885461 0.07843647 0.055153184
0002a0 c6 59 c4 bc 27 4a 13 be d4 23 36 3b f2 d8 8d ba
       -0.023968589 -0.14383756 0.0027792351 -0.0010822101
0002b0 41 60 ce bd ab 28 ef 3d d1 0d e1 bd 88 f5 14 3e
       -0.10076953 0.11677679 -0.109889634 0.14546788
0002c0 c4 77 c3 3a a1 0c 10 bc b1 a0 e9 3d f0 3c ce 3d
       0.0014913012 -0.0087920735 0.114076026 0.10070217
0002d0 33 90 0f 3e e2 e3 5d 3d 40 76 8f bd 4d f8 f3 3d
       0.14019851 0.054172404 -0.07004976 0.11912594
0002e0 46 31 39 3d d5 52 33 3d a2 a7 09 be 3a ec 8b bc
       0.045213006 0.043780167 -0.13442853 -0.017080415
0002f0 2f 0d ef bc e2 8e c7 3d 64 cd 00 3e 9e 37 ee bd
       -0.029181091 0.097440496 0.1257835 -0.11631702
000300 00 a9 1b 3e 5e 88 6c ba 2d c2 09 be 6a 6b bf bc
       0.15201187 -0.0009023006 -0.13452978 -0.023366649
000310 5b 08 f6 bc df f4 37 bd aa 6d 00 bc a6 1e ca 3d
       -0.030033281 -0.04491126 -0.007838646 0.09869127
000320 c5 e1 8e bd 98 b0 5f bd 7b 72 1b 3e 22 ce 90 bd
       -0.06976656 -0.054611772 0.1518039 -0.07070567
000330 cb 96 18 be 7b da 8c 3d 5c d5 16 3e e7 e6 01 3e
       -0.14901273 0.06877609 0.14729828 0.12685739
000340 0e 73 b5 bd ca 7f 33 bd d9 aa c8 bd 96 03 2d 3d
       -0.088598356 -0.04382304 -0.097982116 0.042239748
000350 58 f8 b5 3b f8 31 d5 bd 10 29 09 3e d6 0b b4 3d
       0.0055532865 -0.104099214 0.1339457 0.0879132
000360 75 33 1b bc 03 6a 68 bd 2f 64 63 bd ce 1d f9 bd
       -0.0094727175 -0.056741726 -0.055515464 -0.12163888
000370 0b f3 30 3d 68 62 e8 3c 8b c6 fc bd 84 61 8d bd
       0.043200534 0.028367236 -0.123425566 -0.06903365
000380 8d 73 f9 3c 7a 0f bb bd 89 41 56 3d 26 56 26 3c
       0.030450607 -0.09133811 0.052308593 0.010152375
000390 18 e0 08 bd 74 89 14 3e f8 d8 0d 3e f3 a3 84 3d
       -0.033416837 0.14505559 0.13852298 0.06476583
0003a0 7c 7c 36 bd c7 b7 bb bd 3c 83 92 3d 5f a2 85 3c
       -0.04455231 -0.09165912 0.07153937 0.016312776
0003b0 08 2d 43 3d bc 09 15 be 38 6d b7 bd b1 1a b4 bd
       0.047650367 -0.14554495 -0.08956379 -0.087941535
0003c0 cd 55 01 3e 28 9d 54 bd 52 f5 62 3d 99 aa 0f 3e
       0.12630387 -0.05190769 0.055409737 0.14029922
0003d0 b9 3f e8 3c 0a 81 b1 3b e3 1f fe bd c4 27 0a be
       0.028350698 0.005416994 -0.12408426 -0.13491732
0003e0 ef 40 c2 bd 3c 49 0c be ec 3f e9 3d e5 45 19 3d
       -0.09485041 -0.13699812 0.11389145 0.037420172
0003f0 c5 90 a9 3b 24 d1 03 3e 55 db cc bd dd fd 0d 3e
       0.0051747286 0.1287275 -0.10002772 0.13866372

thgnn.temporal_attention.q_transform.weight f4 [128, 128]
000000 66 cc 48 bd 6a 74 eb bc 2c 99 91 bc 16 f7 66 3d
       -0.049023055 -0.028742034 -0.017773233 0.056387983
000010 ec e1 90 bc c8 5b 67 3c 7b 2a 89 bd 60 b0 2a 3c
       -0.017685853 0.014121003 -0.06697556 0.010418028
000020 30 59 a1 bb 72 a0 49 3d 6a c2 46 3d 6f 5f a3 3d
       -0.004923962 0.04922528 0.04852525 0.07977187
000030 6a a3 6a bd 6d 6d 9f 3d b6 91 33 3d 70 fc fb bb
       -0.05728475 0.07784543 0.043840133 -0.007690005
000040 3a f6 48 3d da b0 1c bd a1 3d a0 3d ee 9f 61 3d
       0.049062945 -0.038254596 0.07824255 0.05508416
000050 00 a6 70 39 00 b8 c6 38 78 9a 96 3c 5e 71 5a 3d
       0.00022950023 9.4756484e-05 0.018384203 0.05333077
000060 78 bc ca bc 30 c2 16 bc 5f 54 8d 3d 6f f0 97 3d
       -0.024748072 -0.009201571 0.06900858 0.07418906
000070 1e 1f 5c bd 90 7d e3 bb 92 72 e4 bc ce 73 76 3d
       -0.053740613 -0.0069424585 -0.027886663 0.060169034
000080 8b 70 b1 bd 09 6c 30 bd c0 1d 96 3c 58 7f 7f 3c
       -0.08664044 -0.04307178 0.018324733 0.015594326
000090 d4 18 65 bd ea fc 23 3d 9c 94 fa 3c c7 5d 8d 3d
       -0.05593188 0.04003612 0.03058844 0.06902652
0000a0 3d 93 9a 3d 0f c9 98 3d 04 6e b2 bd bc 63 0d bd
       0.07547615 0.07460224 -0.0871239 -0.034518942
0000b0 40 3b 9b bc c0 5f b9 3c 80 49 65 3a e5 ba 98 bd
       -0.018949151 0.022628665 0.0008746609 -0.07457522
0000c0 e9 73 b1 3d bc fb a2 bd 00 66 4a ba 99 63 a0 bd
       0.08664686 -0.07958171 -0.00077208877 -0.07831497
0000d0 65 08 a8 3d 5c 71 a5 bd 08 6d e8 3c 50 40 39 3c
       0.08204726 -0.08078262 0.028372303 0.011306837
0000e0 12 07 b2 bd 68 30 f6 3c 42 5f 3f 3d d2 ea 78 3d
       -0.08692755 0.030052379 0.046721704 0.060770817
0000f0 40 f0 4e bc 0d c0 a0 3d ae 6a 36 3d 12 5b 2e 3d
       -0.012630522 0.07849131 0.04453533 0.04256732
000100 40 f6 c0 3a d5 f5 9e 3d 20 e5 b4 3b 63 25 57 bd
       0.0014721826 0.077617325 0.005520478 -0.05252589
000110 4c 8f 97 bc 94 4e ec bc bc ba c7 bc b0 d9 81 bd
       -0.018500946 -0.028846063 -0.024381034 -0.06340349
000120 5e fc 57 bd fe cc 1c 3d 60 f2 4f bb d8 ce 87 bc
       -0.05273091 0.038281433 -0.003173016 -0.016578123
000130 b2 a6 3c bd 82 8b 20 3d 78 0e b2 3c b2 c9 1a 3d
       -0.04605741 0.039195545 0.021735415 0.037790008
000140 24 b2 8b bc 80 ed fa 3a a1 40 47 bd 2e 75 25 3d
       -0.017052718 0.0019144267 -0.04864562 0.040394954
000150 00 9b a3 3a 54 97 a1 bd 1e 07 04 bd cf 94 a2 3d
       0.0012482107 -0.07890192 -0.03223335 0.07938539
000160 10 81 ba 3b 30 bd e5 bc 00 45 73 bb c0 15 7a 3b
       0.005691655 -0.028044313 -0.0037119985 0.0038159937
000170 99 f5 ad 3d 4a 62 42 3d 40 8c 4c 3c f7 d8 30 bd
       0.0849411 0.047457017 0.01248461 -0.043175664
000180 79 05 84 bd d2 3b 0c 3d 30 04 9c bd 57 78 a5 bd
       -0.06446356 0.034236737 -0.07617986 -0.08079594
000190 40 d5 08 bd fc e8 0a bd 38 79 25 bc 90 ab 84 bd
       -0.033406496 -0.033913597 -0.010099702 -0.064780354
0001a0 98 f3 8d 3c a4 ef 98 bc 82 d3 93 bd 20 3f de bb
       0.017328069 -0.018668957 -0.07218076 -0.0067824274
0001b0 32 a8 92 bd b0 e8 ef bc b9 9f 21 bd 5b e0 85 3d
       -0.07160987 -0.029285759 -0.039458964 0.06536933
0001c0 e3 39 2a bd c0 94 2a 3c 30 3e fc 3c e8 01 92 3c
       -0.04155911 0.010411441 0.030791372 0.017823175
0001d0 42 45 7a 3d 8e a8 10 3d 80 7a a0 3a 40 cf c9 bc
       0.061101206 0.035316996 0.0012243539 -0.024634957
0001e0 38 32 1f 3c 4a c6 4b 3d 0d 1d b0 bd 60 73 ea bb
       0.009716563 0.04974965 -0.08599291 -0.007154867
0001f0 3f 6f 8a 3d dc de d5 bc 6a 77 2f 3d ee 91 a1 bd
       0.067595 -0.026107244 0.04283849 -0.07889162
000200 4e 1b 54 bd 01 3b b2 bd 1c cd 9c bc 08 1d 75 bd
       -0.051783852 -0.0870266 -0.019140773 -0.05984214
000210 76 ea 30 3d 24 22 a4 bc 08 94 93 bc b1 da b2 3d
       0.04319235 -0.02003581 -0.018014923 0.08733118
000220 1c 46 a1 bd 80 08 54 3a 78 6b 92 3c b5 9d a0 3d
       -0.078747004 0.0008088425 0.01787351 0.0784258
000230 27 19 47 bd c3 fe 25 bd 0a 7f 51 3d 18 ba 93 bd
       -0.04860797 -0.040526163 0.051146545 -0.07213229
000240 a1 c3 5c bd 9f ee 85 3d 74 a0 b9 bc 03 f7 61 bd
       -0.053897504 0.06539654 -0.022659518 -0.05516721
000250 6d 21 92 3d 10 75 64 3c 70 7f 84 bd df 55 8b 3d
       0.07135282 0.0139439255 -0.06469619 0.06803488
000260 64 9e 9b bd d2 6c 4c 3d 90 62 a3 3c b2 68 5a 3d
       -0.0759857 0.049908467 0.01994446 0.0533225
000270 40 0c 25 bc b2 9a 56 bd ed c5 b1 3d e8 e5 99 bd
       -0.010073721 -0.052393623 0.086803295 -0.07514554
000280 58 38 d2 bc ef b1 a1 3d 20 01 53 bb 8a 84 db bc
       -0.025661632 0.07895266 -0.0032196715 -0.026796598
000290 e9 01 1a bd 40 41 ec bc c6 11 29 bd ed 10 99 3d
       -0.037599478 -0.028839707 -0.041276716 0.074739315
0002a0 4b 5c 36 bd 4b 08 84 3d 08 71 2c 3c ff 4b 34 bd
       -0.04452161 0.06446894 0.010524996 -0.044017788
0002b0 25 2e 94 bd e0 2a 60 3b 50 1f ec bc 26 48 3e 3d
       -0.07235364 0.0034205243 -0.028823525 0.046455525
0002c0 5a 82 6d 3d 9b f3 4b bd 2f 87 a1 3d 80 19 4c ba
       0.05798564 -0.049792867 0.07887112 -0.0007785782
0002d0 5d 2a 8f 3d 1a 3a 4e 3d a8 3f 25 bd 20 28 7d bb
       0.06990502 0.05034838 -0.04034391 -0.0038628653
0002e0 03 59 8a bd 56 f4 03 3d 80 7a ba 3a 58 cd b5 bc
       -0.06755259 0.03221544 0.0014227182 -0.022192642
0002f0 18 1f 7d 3c 05 ae 93 3d 77 7a 41 bd 0e 82 9b bd
       0.015449308 0.07210926 -0.047235932 -0.07593165
000300 50 e0 60 bd db d5 b1 bd 8c 27 96 bd c6 01 7f 3d
       -0.05490142 -0.08683368 -0.07331762 0.06225755
000310 de aa 00 3d c0 14 c7 3c c0 db c2 bb 40 a2 5e bc
       0.03141295 0.024301887 -0.0059466064 -0.013588488
000320 22 65 4d 3d 95 26 4a bd 6e 11 e0 bc 0e a5 66 3d
       0.050145276 -0.0493532 -0.027352061 0.056309752
000330 0c 80 a4 bc 19 fe 97 3d 19 f7 87 3d 9e 43 46 3d
       -0.020080589 0.07421512 0.06638927 0.04840433
000340 fd 21 b4 3d d8 fe ab bd 3d 7d 8f 3d 0f 35 ae 3d
       0.08795545 -0.08398217 0.07006309 0.08506214
000350 7d 51 5e bd ed 5c 8b 3d b6 09 4c bd e5 4c 87 bd
       -0.054276932 0.068048336 -0.04981395 -0.06606463
000360 e8 25 d0 bc ec 0a f2 3c 40 70 b9 bc de 09 85 bd
       -0.0254087 0.029546224 -0.022636533 -0.06496023
000370 b0 52 54 3c 3a 92 4c 3d 3f 6a 84 3d 71 08 a5 bd
       0.012959167 0.04994414 0.06465577 -0.08058251
000380 ae e5 64 3d fa 34 42 3d 70 98 a7 bb df d9 9f 3d
       0.055883102 0.047413804 -0.0051146075 0.078052275
000390 e0 b2 b9 3b 26 29 ad bd d5 3a 5f bd a2 0b 57 bd
       0.0056670755 -0.08455114 -0.054499466 -0.05250133
0003a0 25 38 86 3d e9 c3 ab bd bd 35 44 bd 40 85 35 3b
       0.065536775 -0.08386976 -0.04790281 0.0027697831
0003b0 80 ef 2a 3b 78 41 2b bc d3 62 01 bd e0 4a a5 3b
       0.0026082695 -0.010452621 -0.031588387 0.005044326
0003c0 14 1e 85 bc fa bf 77 3d 1a 5d 95 bd 85 e5 a7 bd
       -0.016249694 0.060485817 -0.07293148 -0.08198074
0003d0 76 4f 63 bd 32 42 46 3d c2 85 3f 3d eb bf 83 3d
       -0.0554957 0.048402973 0.04675842 0.0643309
0003e0 3e 9b 1e 3d ac 66 c5 bc 34 84 f4 bc aa 41 15 3d
       0.03872227 -0.02409681 -0.029848196 0.036439575
0003f0 96 87 6d 3d a8 21 a6 bd a0 0b e6 bb ae ae e7 bc
       0.057990633 -0.08111888 -0.007020429 -0.028281536
